results/maf/model_state.pt (torch_old, 140523 bytes, 12 tensors)

base_dist_mean f4 [18]
0	0x00000000	0.0
1	0x00000000	0.0
2	0x00000000	0.0
3	0x00000000	0.0
4	0x00000000	0.0
5	0x00000000	0.0
6	0x00000000	0.0
7	0x00000000	0.0
8	0x00000000	0.0
9	0x00000000	0.0
10	0x00000000	0.0
11	0x00000000	0.0
12	0x00000000	0.0
13	0x00000000	0.0
14	0x00000000	0.0
15	0x00000000	0.0
16	0x00000000	0.0
17	0x00000000	0.0

base_dist_var f4 [18]
0	0x3f800000	1.0
1	0x3f800000	1.0
2	0x3f800000	1.0
3	0x3f800000	1.0
4	0x3f800000	1.0
5	0x3f800000	1.0
6	0x3f800000	1.0
7	0x3f800000	1.0
8	0x3f800000	1.0
9	0x3f800000	1.0
10	0x3f800000	1.0
11	0x3f800000	1.0
12	0x3f800000	1.0
13	0x3f800000	1.0
14	0x3f800000	1.0
15	0x3f800000	1.0
16	0x3f800000	1.0
17	0x3f800000	1.0

net_input.weight f4 [100, 18]
0	0x3df59b18	0.119924724
1	0xbdc61f18	-0.096738994
2	0xbd20c1e4	-0.03924741
3	0x3dd38ae2	0.10329224
4	0xbe5b5591	-0.2141936
5	0x3e0912bc	0.13386053
6	0xbd2be2f8	-0.0419645
7	0x3de6700a	0.112518385
8	0x3cdbb627	0.026820255
9	0xbcbd79d3	-0.02312938
10	0x3d6f98b7	0.05849525
11	0x3bfcfbdd	0.007720454
12	0x3da1ac10	0.078941464
13	0xbdad5fcb	-0.08465537
14	0xbc4c0300	-0.012451887
15	0xbc83922a	-0.016060907
16	0x3ce69960	0.028149307
17	0xb9dab5e6	-0.00041715725
18	0x3e533925	0.20627268
19	0x3d9c3771	0.07627762
20	0xbda51a66	-0.08061676
21	0xbe0a17ef	-0.13485692
22	0xbd084433	-0.033268165
23	0xbdc14fb0	-0.09439027
24	0xbd8c4c9d	-0.0685055
25	0x3bf3dd19	0.0074421284
26	0x3e0835dc	0.13301796
27	0x3df7257f	0.12067699
28	0xbe64094a	-0.22269168
29	0x3e0dee31	0.13860394
30	0x3d717fbd	0.05895971
31	0x3e5d0ca3	0.21586852
32	0x3e179579	0.14803113
33	0xbe5408ba	-0.20706454
34	0xbe5d979f	-0.2163987
35	0xbdd9c2e7	-0.10632878
36	0x3e5228ec	0.20523423
37	0xbd20915b	-0.03920112
38	0x3dcbc83b	0.099503
39	0xbdd14f04	-0.10220149
40	0x3e64eb86	0.2235547
41	0xbdbd5cd3	-0.092462204
42	0x3e2d3585	0.16914947
43	0x3ab59684	0.0013854061
44	0xbdef1dab	-0.116755806
45	0x3de8f7e3	0.11375406
46	0xbdf109cc	-0.11769447
47	0x3d7f82fb	0.062380772
48	0xbd7a6d17	-0.061139192
49	0xbca65cda	-0.020307947
50	0xbe602440	-0.21888828
51	0xbdd71935	-0.10502855
52	0x3df6b67b	0.12046524
53	0xbd4f19d8	-0.050561756
54	0x3e7537ac	0.23947018
55	0x3e454141	0.19263174
56	0xbc30d25d	-0.010792342
57	0xbe226b0a	-0.15861145
58	0x3e0b4bb3	0.13603096
59	0x3d877dbf	0.06615781
60	0xbe144d98	-0.14482725
61	0x3e150df9	0.14556111
62	0x3e0ad930	0.13559413
63	0x3e4e319d	0.20136113
64	0xbdff5342	-0.12467052
65	0xbd0578b8	-0.03258583
66	0xbb21b483	-0.0024674244
67	0x3ce8a60f	0.028399495
68	0xbe2f5fc3	-0.17126374
69	0xbe238240	-0.15967655
70	0x3df75f07	0.12078672
71	0xbd46fc9d	-0.048580755
72	0x3de8ccb4	0.11367169
73	0x3c64a87b	0.0139561845
74	0x3da2c0b3	0.07946911
75	0x3d558ab4	0.05213423
76	0x3dad3c0c	0.08458719
77	0x3de02e7a	0.10946365
78	0xbe57a44f	-0.21058773
79	0x3de3d954	0.111254364
80	0xbe21f1dd	-0.1581492
81	0xbe2e5007	-0.17022716
82	0x3c238966	0.009981489
83	0xbd0adc86	-0.033901714
84	0x3e06181f	0.13095139
85	0xbe04204c	-0.12902945
86	0xbe4eb250	-0.20185208
87	0x3e27e046	0.16394147
88	0xbcecbef0	-0.02889964
89	0x3e001e55	0.12511571
90	0x3d9953ed	0.07486711
91	0xbe34e226	-0.17664394
92	0x3d3b235d	0.045688022
93	0x3d6ec74a	0.058295526
94	0xbe1f7102	-0.15570453
95	0xbddf45f2	-0.10902013
96	0x3d9616f4	0.07328597
97	0x3d12faba	0.035883643
98	0xbdbe73b5	-0.09299413
99	0xbd83da66	-0.064381406
100	0x3e552d63	0.20818095
101	0xbd187c94	-0.037228182
102	0x3e00706a	0.12542883
103	0x3dc21b9a	0.09477921
104	0xbe144cd2	-0.1448243
105	0xbe4568f8	-0.19278324
106	0x3e5fc7bb	0.21853535
107	0x3c07a610	0.0082793385
108	0x3e27f6af	0.16402696
109	0x3d437368	0.04771748
110	0x3d941a83	0.07231619
111	0x3e356134	0.17712861
112	0x3e645a72	0.22300127
113	0xbe1e302e	-0.15448067
114	0x3d064256	0.032778107
115	0x3e2c5389	0.16828741
116	0x3e2712dd	0.1631579
117	0x3e0e3f51	0.13891341
118	0xbe26e6c0	-0.16298962
119	0xbe260808	-0.16214001
120	0xbe0a49cb	-0.13504712
121	0x3cc3423b	0.023835292
122	0x3e68a475	0.22718985
123	0xbe10c1cf	-0.14136432
124	0x3df20730	0.11817777
125	0xbdfbed68	-0.12301141
126	0xbe633e5b	-0.22191755
127	0xbd4c036f	-0.049807962
128	0x3e0db8ab	0.13839976
129	0x3e5d98fc	0.2164039
130	0xbe16f5d9	-0.14742221
131	0x3d468e79	0.048475716
132	0x3e4b0040	0.19824314
133	0x3e1b6123	0.15173773
134	0x3e0eb977	0.13937937
135	0x3e23c079	0.15991391
136	0x3e10f592	0.14156178
137	0x3d5d8264	0.05407943
138	0xbe1d4cd2	-0.15361336
139	0xbe42d706	-0.19027337
140	0xbdce3226	-0.10068159
141	0xbcb29f0f	-0.02180436
142	0xbe0c4145	-0.13696773
143	0x3da1f898	0.079087436
144	0x3d8e5c58	0.06951207
145	0xbd568808	-0.052375823
146	0x3dbf344b	0.09336146
147	0x3d959baf	0.07305085
148	0x3e0fc493	0.14039831
149	0x3e1e5395	0.15461572
150	0xbdad095c	-0.08449051
151	0x3e6726a4	0.22573334
152	0xbd01f7b8	-0.031730384
153	0xbba2142f	-0.0049462537
154	0xbe5bec42	-0.21476844
155	0xbe13a0fa	-0.14416876
156	0xbe05581c	-0.13021892
157	0xbdbf93f1	-0.093543895
158	0x3e23d53b	0.1599931
159	0xbd8f5173	-0.06997957
160	0xbe2c929d	-0.16852804
161	0x3dab0177	0.08349889
162	0x3da25c22	0.07927729
163	0x3e1f95a6	0.1558443
164	0xbdf92d6a	-0.12166865
165	0x3d539e39	0.051664565
166	0xbdad2755	-0.084547676
167	0xbd4a386c	-0.049370214
168	0xbe3e237b	-0.18568222
169	0xbdd5b95b	-0.104357444
170	0xbd8d6f08	-0.06905943
171	0x3dd47b45	0.10375074
172	0x3d164ef7	0.0366964
173	0x3d52d3d4	0.051471546
174	0x3e68fd52	0.22752884
175	0x3e6354f4	0.22200376
176	0x3e1cdf9e	0.15319678
177	0x3b93a8be	0.0045061996
178	0xbe1f37cd	-0.1554863
179	0x3e34d024	0.17657524
180	0xbd79da2e	-0.060999088
181	0xbc9c601c	-0.019088797
182	0xbe5454e5	-0.2073551
183	0xbd472b84	-0.048625484
184	0xbe1dafb3	-0.15399055
185	0x3e61ee63	0.22063594
186	0xbe576110	-0.2103312
187	0xbe42f3c8	-0.19038308
188	0xbc5f47be	-0.0136279445
189	0xbe056aae	-0.13028976
190	0x3da73138	0.081636846
191	0xbdab16fa	-0.08353992
192	0xbdd3b203	-0.103366874
193	0x3c15e232	0.009148167
194	0x3e26f1c7	0.16303168
195	0xbe22045e	-0.15821978
196	0x3dd3a809	0.103347845
197	0x3e13589e	0.14389274
198	0x3e6fac4b	0.23405568
199	0xbe2b4096	-0.16723856
200	0x3d63bf9f	0.055602666
201	0xbe336863	-0.17520289
202	0x3e51a41d	0.2047276
203	0xbdbbd227	-0.09170943
204	0x3e13f6d0	0.1444962
205	0x3bd12471	0.006382518
206	0xbc917ea8	-0.01776059
207	0xbba97a30	-0.0051720366
208	0x3d32576f	0.043540414
209	0x3de7b16f	0.1131314
210	0x3d018d7c	0.03162907
211	0x3d84f76c	0.064925045
212	0xbe513c81	-0.20433237
213	0x3e280fa2	0.16412213
214	0x3e4a92b7	0.1978253
215	0x3e3fac18	0.18717992
216	0x3e3416b9	0.17586793
217	0xbe30a2ff	-0.17249678
218	0xbdb96871	-0.09053124
219	0x3e57c247	0.21070205
220	0xbe3a1206	-0.18170938
221	0x3e5fb6f5	0.21847136
222	0xbe41bfdc	-0.18920845
223	0xbe31118b	-0.17291848
224	0x3de6b0b0	0.11264169
225	0xbe2cff44	-0.16894251
226	0xbd5c8104	-0.053833976
227	0x3e30459d	0.17214055
228	0x3e3c9a91	0.18418337
229	0x3e5c5ff0	0.21520972
230	0xbd293ff2	-0.04132075
231	0xbe33ca41	-0.17557622
232	0x3e65bcd2	0.2243531
233	0xbd32c00f	-0.043640193
234	0xbdc88995	-0.09791867
235	0x3d6bbfd1	0.057555977
236	0xbe27ea25	-0.16397913
237	0x3e1b948e	0.15193388
238	0x3e142c0e	0.1446993
239	0xbe44016d	-0.19141169
240	0xbe45edbb	-0.19328968
241	0xbcb0e8b9	-0.021595346
242	0x3dc71c1a	0.09722157
243	0xbc24c28e	-0.010056151
244	0xbdf814f3	-0.12113371
245	0x3c047c13	0.008086222
246	0xbe60bbf8	-0.21946704
247	0xbe28ab53	-0.16471605
248	0xbe18f02a	-0.14935365
249	0x3e3eee83	0.18645673
250	0x3e4ce544	0.20009333
251	0xbd957705	-0.07298092
252	0x3c3891c5	0.011265223
253	0x3dda20bd	0.106507756
254	0x3cd4db02	0.025983337
255	0xbdf0bfa3	-0.11755302

net_input.bias f4 [100]
0	0x3e260461	0.16212608
1	0x3d967647	0.07346778
2	0xbe0b4af4	-0.13602811
3	0x3e2564d9	0.16151752
4	0xbe31bed6	-0.17357954
5	0x3e0142b7	0.12623106
6	0xbd3eda81	-0.0465951
7	0x3d879267	0.06619721
8	0xbd11b31b	-0.0355712
9	0x3d58f136	0.05296441
10	0xbd81bb45	-0.06334547
11	0x3dd596f1	0.104291804
12	0x3df1c8c5	0.11805872
13	0xbe636190	-0.22205186
14	0x3e5d58be	0.21615884
15	0xbe49f52c	-0.19722432
16	0xbdcac71e	-0.0990126
17	0x3dbacfa4	0.091216356
18	0x3e5c5f89	0.21520819
19	0x3d9bcb5d	0.07607148
20	0xbdfe6d8f	-0.124232404
21	0x3d36eb23	0.044657838
22	0xbe0984e2	-0.13429597
23	0x3dea1f8b	0.114317976
24	0x3ca06126	0.019577574
25	0x3cdaab11	0.026692899
26	0xbe3df129	-0.18549027
27	0x3e093e88	0.1340276
28	0x3e6ca95d	0.23111482
29	0xbe2c5376	-0.16828713
30	0x3dabe931	0.08394087
31	0xbddae681	-0.106884964
32	0xbd8a775a	-0.06761046
33	0x3e5de848	0.2167064
34	0xbe5b0f08	-0.21392453
35	0xbd159848	-0.03652218
36	0x3db63aef	0.088979594
37	0x3ddca0c7	0.10772853
38	0xbdc57a40	-0.09642458
39	0xbdf7ff10	-0.12109196
40	0x3d282205	0.04104807
41	0xbe5ab3ab	-0.213576
42	0x3d01dde9	0.03170577
43	0xbe1529da	-0.14566746
44	0xbd4ff9b6	-0.050775252
45	0x3e61d343	0.22053246
46	0xbe4d71d5	-0.20062955
47	0xbdfdc2be	-0.1239066
48	0xbe320fbc	-0.17388815
49	0x3e12b7c6	0.14327917
50	0x3e4f5487	0.20247088
51	0xbe14eb5d	-0.14542909
52	0x3e12d8c4	0.14340502
53	0x3e1422e8	0.1446644
54	0xbe522e6d	-0.20525523
55	0x3da77d47	0.08178192
56	0x3dd0e7dc	0.10200474
57	0xbd1b02b0	-0.03784436
58	0x3e1b1d33	0.15147857
59	0xbbe11d38	-0.006869938
60	0xbcbcd211	-0.023049386
61	0x3e004a13	0.12528257
62	0xbe62f683	-0.2216435
63	0xbe65e165	-0.22449262
64	0x3d43ee0e	0.04783445
65	0x3cf14be4	0.029455133
66	0x3cc18ca6	0.023626637
67	0xbe1a98f0	-0.15097404
68	0x3e441d42	0.19151786
69	0xbe0e7568	-0.13911974
70	0xbdc7204e	-0.097229585
71	0xbe44ca7a	-0.19217864
72	0xbe6be3f0	-0.2303617
73	0x3d83cb98	0.06435317
74	0xbdce2360	-0.10065341
75	0x3e19980c	0.14999408
76	0x3e7036a1	0.2345834
77	0x3d938d42	0.07204677
78	0x3e4e705b	0.20160048
79	0xbe216151	-0.1575978
80	0x3e06a3e1	0.13148452
81	0x3df9b570	0.121928096
82	0xbdcae268	-0.09906465
83	0xbc1c75d2	-0.009549575
84	0xbe1742af	-0.14771532
85	0x3cf1ccde	0.029516634
86	0xbe6c3061	-0.2306533
87	0xbe0c6b80	-0.13712883
88	0xbe48e793	-0.19619589
89	0xbd04805b	-0.03234897
90	0x3cffe667	0.031237794
91	0xbe3d7f76	-0.18505654
92	0xbda20fea	-0.079131916
93	0x3e138ba5	0.14408739
94	0x3b8b4e1a	0.004251254
95	0x3d443a82	0.04790736
96	0xbde26966	-0.110552594
97	0xbd86a85b	-0.0657508
98	0xbe5470cb	-0.20746152
99	0x3e5996d4	0.21248943

net_input.cond_weight f4 [100, 36]
0	0x3dbbb607	0.09165578
1	0x3df76905	0.12080578
2	0x3e05cf4c	0.13067359
3	0x3e217b84	0.15769774
4	0x3cd66357	0.026170416
5	0x3dda97cf	0.106734864
6	0x3c213ee8	0.009841658
7	0x3de6f1e1	0.112766035
8	0x3d2741a3	0.04083408
9	0x3df15366	0.11783485
10	0x3cbd5de1	0.023116054
11	0x3e030dae	0.12798187
12	0x3e133d54	0.14378864
13	0x3e03d9eb	0.12876098
14	0x3c5e5e93	0.013572353
15	0x3e0ab0a8	0.13543952
16	0x3d04afb1	0.032394115
17	0x3bb6ec30	0.005582355
18	0x3e0c3b8c	0.1369459
19	0x3dc698c4	0.096971065
20	0x3d551b79	0.052028153
21	0x3c3a1578	0.011357658
22	0x3dd802ba	0.10547395
23	0x3d45ae9f	0.048262235
24	0x3c85bf28	0.016326502
25	0x3d924ad8	0.071431816
26	0x3c40d292	0.011768954
27	0x3e009f66	0.12560806
28	0x3cfe43ab	0.031038126
29	0x3d6981b4	0.05700846
30	0x3ac452a9	0.0014978248
31	0x3d93c657	0.07215565
32	0x3d7096cd	0.058737565
33	0x3e042bb5	0.12907298
34	0x3d8a1885	0.06742958
35	0x3e0ec03a	0.13940516
36	0x3e1dd431	0.15412976
37	0x3dcbf9d5	0.09959761
38	0x3d5ed406	0.05440142
39	0x3c513f10	0.012771383
40	0x3cbde9ac	0.023182712
41	0x3d5ceb6c	0.053935453
42	0x3cdfff36	0.027343374
43	0x3dfd44c4	0.123666316
44	0x3d5a8fee	0.05335992
45	0x3da113d1	0.07865108
46	0x3dadfe8f	0.08495819
47	0x3c32e32f	0.010918423
48	0x3e1dfac3	0.15427689
49	0x3d527755	0.051383335
50	0x3c860674	0.016360499
51	0x3dabb220	0.08383584
52	0x3c2a3515	0.010388632
53	0x3dc3d7e0	0.09562659
54	0x3cf16202	0.02946568
55	0x3d89796c	0.067126125
56	0x3d6e65d9	0.0582026
57	0x3e11ef83	0.14251523
58	0x3e179431	0.14802624
59	0x3e283498	0.16426313
60	0x3db8b259	0.09018392
61	0x3e09036f	0.13380216
62	0x3c3b5b83	0.011435392
63	0x3cd0329d	0.02541476
64	0x3e020606	0.1269761
65	0x3dce5675	0.10075084
66	0x3ddbea33	0.10738029
67	0x3e05b181	0.13055994
68	0x3e0bf0af	0.13666032
69	0x3dffa1ce	0.12482034
70	0x3d5bdf0c	0.05367951
71	0x3d73cf97	0.059524145
72	0x3dcbc6e8	0.09950048
73	0x3e1d5734	0.15365297
74	0x3d9cc6e9	0.076551266
75	0x3d6a46c8	0.05719641
76	0x3e03bb4b	0.12864415
77	0x3e0ca8c7	0.13736258
78	0x3da106a3	0.07862594
79	0x3d602f36	0.054732524
80	0xbb43d577	-0.0029881874
81	0x3dae3efa	0.085081056
82	0x3dd9fda8	0.10644084
83	0x3ca5f098	0.020256326
84	0x3cad64ca	0.021166224
85	0xb88d867c	-6.7484536e-05
86	0x3e184deb	0.14873473
87	0x3e249b79	0.16074933
88	0x3e298635	0.16555102
89	0x3e221e9a	0.15831986
90	0x3d949325	0.07254628
91	0x3df9c976	0.12196629
92	0x3e074ff1	0.13214089
93	0x3d73e474	0.05954404
94	0x3d0bad34	0.034100726
95	0x3e1a75df	0.15084027
96	0x3d92cd9e	0.071681246
97	0x3de39a91	0.111134656
98	0x3d2ad89e	0.04171049
99	0x3d20520a	0.03914074
100	0x3d885c0d	0.06658182
101	0x3dac8667	0.08424073
102	0x3e07effe	0.13275144
103	0x3e0b8b18	0.13627279
104	0x3d9519a8	0.07280284
105	0x3e28679c	0.16445774
106	0x3d1ece75	0.03877111
107	0x3db5d753	0.088789605
108	0x3d04cb45	0.032420415
109	0x3dc83a69	0.09776766
110	0x3e20c956	0.15701804
111	0x3c661c2c	0.014044803
112	0x3dd4c4de	0.10389112
113	0x3c19417d	0.0093539925
114	0x3d87c351	0.066290505
115	0x3d34e215	0.04416092
116	0x3dabef95	0.08395306
117	0x3cdeba48	0.027188435
118	0x3dda1ce2	0.1065004
119	0x3b989387	0.0046562585
120	0x3dceccaa	0.1009763
121	0x3d520e7d	0.05128335
122	0x3cfc5858	0.030803844
123	0x3e1c7747	0.15279876
124	0x3dbcd642	0.09220554
125	0x3cd86dda	0.026419569
126	0x3d1aa7b3	0.037757587
127	0x3d425104	0.047440544
128	0x3d02cc09	0.031932864
129	0x3dbdc0fe	0.09265326
130	0x3daf60b6	0.08563368
131	0x3e222772	0.1583536
132	0x3db34652	0.08753647
133	0x3d2434b3	0.04008932
134	0x3e2064dc	0.15663475
135	0x3ddaf2b4	0.10690823
136	0x3d8c0926	0.068376824
137	0x3e124e60	0.1428771
138	0x3e1ade7f	0.15123938
139	0x3c61ddcf	0.013785793
140	0x3c440801	0.011964799
141	0x3ce0170e	0.027354743
142	0x3c3f921f	0.011692553
143	0x3d67df81	0.056609634
144	0x3de40121	0.11133028
145	0x3bbeb021	0.005819336
146	0x3b3767ff	0.002798557
147	0x3c3ed634	0.01164775
148	0x3d17b165	0.03703441
149	0x3e08114c	0.13287848
150	0x3e1d4468	0.15358126
151	0x3e25dce2	0.16197541
152	0x3da47168	0.08029443
153	0x3c17413f	0.0092318645
154	0x3e24562a	0.16048494
155	0x3ccaec5f	0.024770914
156	0x3de73474	0.112893015
157	0x3df91621	0.12162424
158	0x3de1dd70	0.11028564
159	0x3de0dce8	0.109796345
160	0x3b4da954	0.0031381445
161	0x3d58f2f2	0.052966066
162	0x3cea72b2	0.028619144
163	0x3e0f8b2a	0.1401793
164	0x3d156cef	0.03648084
165	0x3da75c69	0.08171923
166	0x3e1fa26a	0.155893
167	0x3e1230f4	0.14276487
168	0x3ca7bca2	0.02047569
169	0x3c376a76	0.011194816
170	0x3e159931	0.14609219
171	0x3dd5cd0a	0.10439499
172	0x3c82e8b8	0.01598011
173	0x3e1c640a	0.15272537
174	0x3cb17153	0.021660483
175	0x3e1b8560	0.15187597
176	0x3e12e4d3	0.14345102
177	0x3e1161c0	0.14197445
178	0x3d849d33	0.06475296
179	0x3db1b01d	0.08676169
180	0x3c5ca4e5	0.013467048
181	0x3e0681a4	0.13135391
182	0x3db44d96	0.08803861
183	0x3e15c00f	0.14624046
184	0x3d4eaec7	0.05045965
185	0x3e28ce84	0.1648503
186	0x3e0f87fd	0.14016719
187	0x3d7863b7	0.06064197
188	0x3dd80481	0.10547734
189	0x3cb73e79	0.022368656
190	0x3cdbb2a4	0.02681858
191	0x3cca7d83	0.024718052
192	0x3d13acc5	0.036053438
193	0x3ddfcebb	0.109281026
194	0x3d3e1f32	0.04641647
195	0x3d61cdf7	0.055128064
196	0x3e144623	0.1447988
197	0x3dca7e6f	0.098873965
198	0x3d2b1416	0.041767202
199	0x3d7d891e	0.061898343
200	0x3d74a00d	0.05972295
201	0x3dfc16ed	0.1230906
202	0x3e139078	0.14410579
203	0x3e1b2664	0.15151364
204	0x3cd9331a	0.026513625
205	0x3d988d04	0.074487716
206	0x3dd43cde	0.10363172
207	0x3d54219a	0.051789857
208	0x3e0fbb3f	0.14036272
209	0x3d9a1639	0.0752377
210	0x3dbdd070	0.09268272
211	0x3c58edce	0.013240291
212	0x3e1313e2	0.14363053
213	0x3cefae13	0.02925781
214	0x3dada8ad	0.08479438
215	0x3c91ca05	0.017796526
216	0x3e192fd0	0.14959645
217	0x3db57582	0.088603035
218	0x3df4a7de	0.119460806
219	0x3c980c45	0.018560538
220	0x3dbf3601	0.09336472
221	0x3df46fe3	0.11935403
222	0x3e13b2e2	0.14423707
223	0x3e157adc	0.14597648
224	0x3d8ff150	0.070284486
225	0x3d9ec51a	0.07752438
226	0x3deaee6e	0.11471258
227	0x3d65abaf	0.056071933
228	0x3d5891f1	0.052873556
229	0x3c128f17	0.008945248
230	0x3b205b03	0.002446831
231	0x3d254eb3	0.040358257
232	0x3dc66fed	0.09689317
233	0x3dbd3292	0.09238161
234	0x3dbd514d	0.092440225
235	0x3dc5340c	0.09629068
236	0x3d8a41c1	0.06750823
237	0x3a9786fc	0.0011560614
238	0x3e228b5d	0.15873475
239	0x3cca4e6d	0.0246956
240	0x3dad6cc4	0.08468011
241	0x3df17085	0.117890395
242	0x3ddd14a7	0.10794955
243	0x3d488315	0.048953135
244	0x3c6b3c4b	0.014357637
245	0x3e1d8a14	0.15384704
246	0x3db6f79d	0.08933947
247	0x3e262a84	0.16227156
248	0x3dfe114f	0.12405645
249	0x3df472da	0.11935969
250	0x3dd55005	0.10415653
251	0x3d8a493f	0.06752252
252	0x3d02aceb	0.03190319
253	0x3dbc9b0b	0.092092596
254	0x3e280d87	0.1641141
255	0x3e068d0f	0.13139747

net_input.mask f4 [100, 18]
0	0x3f800000	1.0
1	0x00000000	0.0
2	0x00000000	0.0
3	0x00000000	0.0
4	0x00000000	0.0
5	0x00000000	0.0
6	0x00000000	0.0
7	0x00000000	0.0
8	0x00000000	0.0
9	0x00000000	0.0
10	0x00000000	0.0
11	0x00000000	0.0
12	0x00000000	0.0
13	0x00000000	0.0
14	0x00000000	0.0
15	0x00000000	0.0
16	0x00000000	0.0
17	0x00000000	0.0
18	0x3f800000	1.0
19	0x3f800000	1.0
20	0x00000000	0.0
21	0x00000000	0.0
22	0x00000000	0.0
23	0x00000000	0.0
24	0x00000000	0.0
25	0x00000000	0.0
26	0x00000000	0.0
27	0x00000000	0.0
28	0x00000000	0.0
29	0x00000000	0.0
30	0x00000000	0.0
31	0x00000000	0.0
32	0x00000000	0.0
33	0x00000000	0.0
34	0x00000000	0.0
35	0x00000000	0.0
36	0x3f800000	1.0
37	0x3f800000	1.0
38	0x3f800000	1.0
39	0x00000000	0.0
40	0x00000000	0.0
41	0x00000000	0.0
42	0x00000000	0.0
43	0x00000000	0.0
44	0x00000000	0.0
45	0x00000000	0.0
46	0x00000000	0.0
47	0x00000000	0.0
48	0x00000000	0.0
49	0x00000000	0.0
50	0x00000000	0.0
51	0x00000000	0.0
52	0x00000000	0.0
53	0x00000000	0.0
54	0x3f800000	1.0
55	0x3f800000	1.0
56	0x3f800000	1.0
57	0x3f800000	1.0
58	0x00000000	0.0
59	0x00000000	0.0
60	0x00000000	0.0
61	0x00000000	0.0
62	0x00000000	0.0
63	0x00000000	0.0
64	0x00000000	0.0
65	0x00000000	0.0
66	0x00000000	0.0
67	0x00000000	0.0
68	0x00000000	0.0
69	0x00000000	0.0
70	0x00000000	0.0
71	0x00000000	0.0
72	0x3f800000	1.0
73	0x3f800000	1.0
74	0x3f800000	1.0
75	0x3f800000	1.0
76	0x3f800000	1.0
77	0x00000000	0.0
78	0x00000000	0.0
79	0x00000000	0.0
80	0x00000000	0.0
81	0x00000000	0.0
82	0x00000000	0.0
83	0x00000000	0.0
84	0x00000000	0.0
85	0x00000000	0.0
86	0x00000000	0.0
87	0x00000000	0.0
88	0x00000000	0.0
89	0x00000000	0.0
90	0x3f800000	1.0
91	0x3f800000	1.0
92	0x3f800000	1.0
93	0x3f800000	1.0
94	0x3f800000	1.0
95	0x3f800000	1.0
96	0x00000000	0.0
97	0x00000000	0.0
98	0x00000000	0.0
99	0x00000000	0.0
100	0x00000000	0.0
101	0x00000000	0.0
102	0x00000000	0.0
103	0x00000000	0.0
104	0x00000000	0.0
105	0x00000000	0.0
106	0x00000000	0.0
107	0x00000000	0.0
108	0x3f800000	1.0
109	0x3f800000	1.0
110	0x3f800000	1.0
111	0x3f800000	1.0
112	0x3f800000	1.0
113	0x3f800000	1.0
114	0x3f800000	1.0
115	0x00000000	0.0
116	0x00000000	0.0
117	0x00000000	0.0
118	0x00000000	0.0
119	0x00000000	0.0
120	0x00000000	0.0
121	0x00000000	0.0
122	0x00000000	0.0
123	0x00000000	0.0
124	0x00000000	0.0
125	0x00000000	0.0
126	0x3f800000	1.0
127	0x3f800000	1.0
128	0x3f800000	1.0
129	0x3f800000	1.0
130	0x3f800000	1.0
131	0x3f800000	1.0
132	0x3f800000	1.0
133	0x3f800000	1.0
134	0x00000000	0.0
135	0x00000000	0.0
136	0x00000000	0.0
137	0x00000000	0.0
138	0x00000000	0.0
139	0x00000000	0.0
140	0x00000000	0.0
141	0x00000000	0.0
142	0x00000000	0.0
143	0x00000000	0.0
144	0x3f800000	1.0
145	0x3f800000	1.0
146	0x3f800000	1.0
147	0x3f800000	1.0
148	0x3f800000	1.0
149	0x3f800000	1.0
150	0x3f800000	1.0
151	0x3f800000	1.0
152	0x3f800000	1.0
153	0x00000000	0.0
154	0x00000000	0.0
155	0x00000000	0.0
156	0x00000000	0.0
157	0x00000000	0.0
158	0x00000000	0.0
159	0x00000000	0.0
160	0x00000000	0.0
161	0x00000000	0.0
162	0x3f800000	1.0
163	0x3f800000	1.0
164	0x3f800000	1.0
165	0x3f800000	1.0
166	0x3f800000	1.0
167	0x3f800000	1.0
168	0x3f800000	1.0
169	0x3f800000	1.0
170	0x3f800000	1.0
171	0x3f800000	1.0
172	0x00000000	0.0
173	0x00000000	0.0
174	0x00000000	0.0
175	0x00000000	0.0
176	0x00000000	0.0
177	0x00000000	0.0
178	0x00000000	0.0
179	0x00000000	0.0
180	0x3f800000	1.0
181	0x3f800000	1.0
182	0x3f800000	1.0
183	0x3f800000	1.0
184	0x3f800000	1.0
185	0x3f800000	1.0
186	0x3f800000	1.0
187	0x3f800000	1.0
188	0x3f800000	1.0
189	0x3f800000	1.0
190	0x3f800000	1.0
191	0x00000000	0.0
192	0x00000000	0.0
193	0x00000000	0.0
194	0x00000000	0.0
195	0x00000000	0.0
196	0x00000000	0.0
197	0x00000000	0.0
198	0x3f800000	1.0
199	0x3f800000	1.0
200	0x3f800000	1.0
201	0x3f800000	1.0
202	0x3f800000	1.0
203	0x3f800000	1.0
204	0x3f800000	1.0
205	0x3f800000	1.0
206	0x3f800000	1.0
207	0x3f800000	1.0
208	0x3f800000	1.0
209	0x3f800000	1.0
210	0x00000000	0.0
211	0x00000000	0.0
212	0x00000000	0.0
213	0x00000000	0.0
214	0x00000000	0.0
215	0x00000000	0.0
216	0x3f800000	1.0
217	0x3f800000	1.0
218	0x3f800000	1.0
219	0x3f800000	1.0
220	0x3f800000	1.0
221	0x3f800000	1.0
222	0x3f800000	1.0
223	0x3f800000	1.0
224	0x3f800000	1.0
225	0x3f800000	1.0
226	0x3f800000	1.0
227	0x3f800000	1.0
228	0x3f800000	1.0
229	0x00000000	0.0
230	0x00000000	0.0
231	0x00000000	0.0
232	0x00000000	0.0
233	0x00000000	0.0
234	0x3f800000	1.0
235	0x3f800000	1.0
236	0x3f800000	1.0
237	0x3f800000	1.0
238	0x3f800000	1.0
239	0x3f800000	1.0
240	0x3f800000	1.0
241	0x3f800000	1.0
242	0x3f800000	1.0
243	0x3f800000	1.0
244	0x3f800000	1.0
245	0x3f800000	1.0
246	0x3f800000	1.0
247	0x3f800000	1.0
248	0x00000000	0.0
249	0x00000000	0.0
250	0x00000000	0.0
251	0x00000000	0.0
252	0x3f800000	1.0
253	0x3f800000	1.0
254	0x3f800000	1.0
255	0x3f800000	1.0

net.1.weight f4 [100, 100]
0	0xbdb5134b	-0.088415705
1	0x3d257b9a	0.04040108
2	0x3da93644	0.082623035
3	0xbc1aeb1b	-0.009455468
4	0x3d09b3e9	0.03361884
5	0x3d8da6a0	0.06916547
6	0xbd8a8b32	-0.06764831
7	0xbdafc90e	-0.0858327
8	0x3d063db7	0.0327737
9	0xbb12332c	-0.0022308333
10	0xbd25feb4	-0.040526107
11	0xbdb09429	-0.08622009
12	0xbd6232f6	-0.05522438
13	0x3caf60a5	0.021408388
14	0xbc5d98f5	-0.013525237
15	0xbda352d3	-0.07974782
16	0xbbd524a2	-0.006504611
17	0xbb36c4c5	-0.002788828
18	0xbdb0560a	-0.08610161
19	0x3d59c66a	0.053167738
20	0x3dbdbf37	0.09264987
21	0x3d83122d	0.06399951
22	0xbda965b7	-0.08271354
23	0xbd600eab	-0.05470149
24	0xbd91979e	-0.07108997
25	0x3d9dec26	0.07711057
26	0xbd278947	-0.040902402
27	0x3d8a3b16	0.06749551
28	0xbd10903e	-0.03529381
29	0x3d0766f7	0.03305718
30	0x3d828213	0.06372466
31	0xbd2ce15e	-0.042207114
32	0x3d19f84b	0.037590306
33	0x3d2dd122	0.042435773
34	0x3c907cd0	0.01763764
35	0xbd017f5a	-0.031615593
36	0xbd8f2fac	-0.069915146
37	0x3c80e6ae	0.015734997
38	0xbdaa9913	-0.08329978
39	0xbcdd4e21	-0.027014794
40	0x3c3d93ca	0.01157088
41	0x3d60be44	0.05486895
42	0x3d8e0e59	0.0693633
43	0xbd9d30e2	-0.07675339
44	0xbd1b3051	-0.037887875
45	0xbbb83bf1	-0.00562238
46	0xba7265c7	-0.00092467334
47	0xbc98400f	-0.018585233
48	0xbd67a2bf	-0.05655169
49	0xbc8aded3	-0.016951954
50	0xbc809077	-0.015693886
51	0xbd5c97b1	-0.0538556
52	0x3cd8c370	0.02646038
53	0xbd84b00c	-0.06478891
54	0xbda0ebd6	-0.07857482
55	0x3c599f5e	0.013282625
56	0xbd2fe749	-0.04294518
57	0x3da5a3c1	0.08087874
58	0xbd701486	-0.058613323
59	0xbd7a8125	-0.061158318
60	0x3db03bb0	0.086051345
61	0x3c5b701e	0.01339343
62	0x3db55339	0.08853764
63	0x3da61a39	0.0811047
64	0x3dbc649d	0.09198878
65	0x3d8ed30a	0.06973846
66	0x3d55b998	0.05217895
67	0xbd5b782a	-0.053581394
68	0xbcb8a35e	-0.022538837
69	0xbbdc5893	-0.006724426
70	0xb822750b	-3.8732815e-05
71	0x3d91a854	0.07112184
72	0x3cc89858	0.024486706
73	0xbdaf676a	-0.085646465
74	0x3ca208e0	0.019779623
75	0x3b5461c8	0.0032406915
76	0x3d1ef88e	0.03881126
77	0xbd150146	-0.036378168
78	0x3d9d3091	0.07675279
79	0xbd826d71	-0.063685305
80	0x3d91b8d3	0.071153305
81	0x3da944b3	0.082650565
82	0xbd97acfd	-0.07406042
83	0xbd7868e6	-0.060646914
84	0x3d7117f5	0.058860738
85	0xbd94a6de	-0.0725839
86	0xbb6a4aef	-0.003575023
87	0xbd4f37e7	-0.050590422
88	0x3d3bfc12	0.04589469
89	0x3db3696a	0.087603405
90	0x3d98723e	0.07443665
91	0x3da1fcc8	0.07909542
92	0x3d44ba3c	0.04802917
93	0xbda0d183	-0.07852461
94	0x3cb0008f	0.021484641
95	0x3dacb251	0.08432449
96	0x3d4b2050	0.049591362
97	0xbd644055	-0.055725414
98	0x3d16065d	0.036627162
99	0x3c8b9362	0.017038051
100	0xbd6a9ba0	-0.05727732
101	0xbda90f9a	-0.08254929
102	0xbd4b09e8	-0.049569994
103	0xbd90e2a9	-0.07074482
104	0xbce00308	-0.027345195
105	0x3bc375e3	0.005964981
106	0xbd341b4e	-0.043971352
107	0xbcad0b9c	-0.0211237
108	0xbce38822	-0.027774874
109	0x3d1ea2b2	0.038729377
110	0xbd93ce15	-0.072170414
111	0x3db44810	0.08802807
112	0x3db936b8	0.0904364
113	0x3da03fd8	0.07824677
114	0x3d8e4609	0.06946952
115	0xbbf5f4a4	-0.00750597
116	0xbd346644	-0.04404284
117	0x3dca2c15	0.09871689
118	0xbdb7fb15	-0.08983437
119	0xbdb521a0	-0.08844304
120	0x3d991e30	0.07476461
121	0xbd057cb3	-0.032589626
122	0x3d7303bc	0.059329733
123	0xbd4fb427	-0.050708916
124	0xbd79d51f	-0.060994264
125	0xbd83b8ad	-0.064317085
126	0xbac329ef	-0.0014889817
127	0xba2d297b	-0.00066056073
128	0xbcfbc113	-0.030731713
129	0x3c7c4b4f	0.015398814
130	0x3d55cef0	0.052199304
131	0xbd20f2a1	-0.03929389
132	0x3d500264	0.05078353
133	0xbd00d263	-0.03145064
134	0x3d06f918	0.032952398
135	0xbced2859	-0.028949903
136	0xbd3f93c4	-0.04677178
137	0x3db742f3	0.089483164
138	0xbd7048d1	-0.058663193
139	0x3c98809c	0.018616013
140	0xbdb39a46	-0.0876966
141	0x3d3e3f5d	0.046447147
142	0x3d72fa6f	0.059320863
143	0xbdb3e45b	-0.0878379
144	0xbd724544	-0.059148088
145	0xbdb61a7d	-0.08891771
146	0x3c9ceb0c	0.019155048
147	0xbdac23b7	-0.084052496
148	0x3d0ade30	0.0339033
149	0x3db3cb6d	0.08779035
150	0xbc04084b	-0.008058618
151	0x3d5588d6	0.05213245
152	0xbd993994	-0.07481685
153	0x3cd1a718	0.025592372
154	0xbc0546c6	-0.0081345495
155	0x3d50f3bd	0.051013697
156	0x3dbd2838	0.09236187
157	0xbd865b63	-0.065603994
158	0xbc277d7b	-0.010222788
159	0xbd5b1c93	-0.053494047
160	0x3d0bac5d	0.034099925
161	0x3da91187	0.08255296
162	0xbc2f2aef	-0.0106913885
163	0x3da8ad0a	0.082361296
164	0x3d7d668e	0.061865382
165	0xbc150c85	-0.009097223
166	0x3d441c13	0.047878336
167	0x3d9d7575	0.07688419
168	0x3c46852c	0.012116712
169	0xbda65222	-0.08121134
170	0x3cb073e8	0.021539643
171	0xbda89ed1	-0.08233417
172	0x3b4c591d	0.0031181045
173	0xbd757585	-0.05992653
174	0x3daf7aa3	0.08568313
175	0xbd51845d	-0.051151622
176	0xbd23f014	-0.04002388
177	0x3d7158f3	0.05892272
178	0xbd6cdae7	-0.05782595
179	0x3db98228	0.090580285
180	0x3c3995ec	0.011327248
181	0x3d3bc681	0.045843605
182	0xbd589476	-0.05287596
183	0xbaf3c558	-0.0018598242
184	0x3d21ee9c	0.039534196
185	0x3d6265f3	0.055273008
186	0xbba6b1e1	-0.005087123
187	0x3da4eba8	0.0805276
188	0x3d17d404	0.03706743
189	0xbcba8572	-0.02276871
190	0xbdb82d21	-0.08992983
191	0x3d9790d8	0.07400674
192	0x3d8b0436	0.067879125
193	0xbd436e32	-0.047712512
194	0x3b2a4e5c	0.0025986647
195	0x3d24a96c	0.040200636
196	0x3d8cd978	0.06877416
197	0xbd068bfb	-0.03284834
198	0x3d1b7f27	0.03796306
199	0xbd4db474	-0.05022092
200	0x3c398d03	0.011325124
201	0xbc9594d4	-0.018259443
202	0x3cbe1bac	0.023206554
203	0x3d4b4686	0.049627803
204	0xbaa2ce01	-0.0012421013
205	0x3d8de7fe	0.069290146
206	0xbd051d90	-0.032498896
207	0xbd4daeda	-0.05021558
208	0x3d9a2e0e	0.075283155
209	0x3aa185bb	0.001232318
210	0xbcb60991	-0.022221358
211	0x3ca0fca6	0.019651722
212	0x3c97f9ea	0.018551785
213	0xbc36a1ae	-0.011146946
214	0xbd39045b	-0.04517017
215	0xbd34fef2	-0.044188447
216	0xbc5f65ed	-0.013635141
217	0x3c6ec802	0.014574053
218	0xbdb5d82d	-0.08879123
219	0x3da50d27	0.08059149
220	0xb8364151	-4.3453012e-05
221	0xb7f06dfd	-2.8661447e-05
222	0x3c91310f	0.017723588
223	0x3c34525b	0.011005963
224	0x3c99fd9f	0.018797694
225	0xb8f5978c	-0.00011710738
226	0xbbfa41b1	-0.0076372256
227	0xbd74856e	-0.05969756
228	0x3d267d28	0.040646702
229	0x3dadcf69	0.08486826
230	0x3d6ea3c8	0.058261663
231	0xbdb0e69c	-0.08637735
232	0x3d781fb6	0.060577117
233	0x3cdde318	0.027085826
234	0xbdb37198	-0.08761901
235	0x3dc3fad8	0.09569329
236	0x3dad567c	0.08463761
237	0x3da77be2	0.08177926
238	0xbda583e6	-0.08081798
239	0xbcc23412	-0.02370647
240	0x3b973668	0.00461464
241	0xbd42f34a	-0.0475953
242	0xbaf6525a	-0.0018792853
243	0xbc68ee92	-0.014217036
244	0x3cd3bebf	0.02584779
245	0xbd7206e1	-0.05908859
246	0xbbd357ec	-0.00644969
247	0x3d9ccb7c	0.07655999
248	0x3d71e1f6	0.059053384
249	0x3c912db6	0.017721992
250	0xbd3e7f5d	-0.04650818
251	0xbd650769	-0.05591527
252	0x3dbafe0e	0.09130488
253	0x3c65af4b	0.014018844
254	0xbb8bfa75	-0.0042718
255	0xbd9b4de3	-0.07583215

net.1.bias f4 [100]
0	0xbdb9b6e1	-0.090680845
1	0x3d94069b	0.072278224
2	0x3c882fef	0.016624419
3	0xbd845b48	-0.06462723
4	0xbda82cae	-0.08211647
5	0x3d801578	0.06254095
6	0xbd88ddbf	-0.0668292
7	0x3d5274af	0.05138081
8	0xbda7f72a	-0.0820144
9	0x3d899396	0.06717603
10	0x3d19b1d1	0.037523095
11	0x3da1486f	0.07875144
12	0x3d2ad7bc	0.041709647
13	0xbd9b25a4	-0.07575539
14	0xbd6da3eb	-0.058017652
15	0xbca0ba95	-0.01962022
16	0xbd6b69a0	-0.05747378
17	0xbc1b7a25	-0.009489571
18	0x3aa1590c	0.0012309863
19	0xb9e626a5	-0.0004389781
20	0x3cb277db	0.021785667
21	0x3d2adfc2	0.0417173
22	0x3bb81b46	0.0056184856
23	0xbd9854d6	-0.07438056
24	0x3d870540	0.06592798
25	0xbda213c4	-0.07913926
26	0x3c14218b	0.0090412
27	0xbd10c73c	-0.035346255
28	0x3dd088de	0.10182355
29	0xbdbdf4d5	-0.09275214
30	0xbccf81a9	-0.025330381
31	0x3d826874	0.06367579
32	0x3c5773c1	0.0131501565
33	0xbdcd3078	-0.1001901
34	0xbd1bc666	-0.038031004
35	0x3d91f83d	0.07127426
36	0x3d9c419c	0.076297015
37	0x3cc95dd4	0.024580874
38	0xbd03611b	-0.03207503
39	0x3c35665f	0.01107177
40	0xbdbd9aab	-0.09258016
41	0xbd1fd060	-0.03901708
42	0xbd0806f3	-0.033209752
43	0x3d64bba9	0.05584303
44	0xbd5c5d28	-0.05379978
45	0x3dc1646e	0.094429836
46	0x3b4fcc65	0.0031707522
47	0x3bb73e94	0.0055921767
48	0xbd2552dd	-0.040362228
49	0xbc9ae1fc	-0.018906586
50	0x3cdb3e73	0.026763177
51	0xbd616ae2	-0.055033572
52	0x3d874994	0.06605831
53	0xbd97d2bc	-0.07413241
54	0x3d6b2464	0.05740775
55	0x3d9c3cad	0.076287605
56	0xbdb376a8	-0.08762866
57	0x3da6ba2d	0.08140979
58	0x3d384184	0.044984356
59	0x3d183562	0.037160285
60	0x3d7e1649	0.06203297
61	0x3a3590a0	0.0006926153
62	0x3c472d7b	0.0121568395
63	0x3c00648e	0.007836474
64	0xbd0031e3	-0.031297576
65	0x3d8f9a44	0.07011846
66	0xbd2f4c76	-0.04279753
67	0x3d73dff9	0.05953977
68	0x3d39daf1	0.045374814
69	0xbd04dd96	-0.032437883
70	0x3c6e6f07	0.014552838
71	0xbd00014d	-0.03125124
72	0xbcf534bd	-0.029932374
73	0xbd746723	-0.05966867
74	0xbdad6380	-0.08466244
75	0xbb9f015f	-0.0048524584
76	0x3d550d1e	0.052014463
77	0xbd4c1d80	-0.04983282
78	0xbd5888d1	-0.052864853
79	0xbd7d1a7b	-0.061792832
80	0xbd91e314	-0.0712339
81	0x3cffae52	0.031211052
82	0x3b990376	0.004669602
83	0x3d1bf8d8	0.038079113
84	0xbd7aaab2	-0.061197944
85	0xbd895cf1	-0.0670718
86	0x3d260a46	0.04053714
87	0x3bed991c	0.007250918
88	0x3db8b8a0	0.090195894
89	0xbcdb165f	-0.026744066
90	0xbc8cf284	-0.017205484
91	0xbd8a81c5	-0.06763033
92	0x3d22a213	0.039705347
93	0x3d8a86a1	0.0676396
94	0xbcf0128c	-0.029305719
95	0x3d625e36	0.055265628
96	0x3d48ff71	0.049071733
97	0x3d13e383	0.036105644
98	0x3d10ff49	0.03539971
99	0xbbcfe8af	-0.0063448767

net.1.mask f4 [100, 100]
0	0x3f800000	1.0
1	0x00000000	0.0
2	0x00000000	0.0
3	0x00000000	0.0
4	0x00000000	0.0
5	0x00000000	0.0
6	0x00000000	0.0
7	0x00000000	0.0
8	0x00000000	0.0
9	0x00000000	0.0
10	0x00000000	0.0
11	0x00000000	0.0
12	0x00000000	0.0
13	0x00000000	0.0
14	0x00000000	0.0
15	0x00000000	0.0
16	0x00000000	0.0
17	0x3f800000	1.0
18	0x00000000	0.0
19	0x00000000	0.0
20	0x00000000	0.0
21	0x00000000	0.0
22	0x00000000	0.0
23	0x00000000	0.0
24	0x00000000	0.0
25	0x00000000	0.0
26	0x00000000	0.0
27	0x00000000	0.0
28	0x00000000	0.0
29	0x00000000	0.0
30	0x00000000	0.0
31	0x00000000	0.0
32	0x00000000	0.0
33	0x00000000	0.0
34	0x3f800000	1.0
35	0x00000000	0.0
36	0x00000000	0.0
37	0x00000000	0.0
38	0x00000000	0.0
39	0x00000000	0.0
40	0x00000000	0.0
41	0x00000000	0.0
42	0x00000000	0.0
43	0x00000000	0.0
44	0x00000000	0.0
45	0x00000000	0.0
46	0x00000000	0.0
47	0x00000000	0.0
48	0x00000000	0.0
49	0x00000000	0.0
50	0x00000000	0.0
51	0x3f800000	1.0
52	0x00000000	0.0
53	0x00000000	0.0
54	0x00000000	0.0
55	0x00000000	0.0
56	0x00000000	0.0
57	0x00000000	0.0
58	0x00000000	0.0
59	0x00000000	0.0
60	0x00000000	0.0
61	0x00000000	0.0
62	0x00000000	0.0
63	0x00000000	0.0
64	0x00000000	0.0
65	0x00000000	0.0
66	0x00000000	0.0
67	0x00000000	0.0
68	0x3f800000	1.0
69	0x00000000	0.0
70	0x00000000	0.0
71	0x00000000	0.0
72	0x00000000	0.0
73	0x00000000	0.0
74	0x00000000	0.0
75	0x00000000	0.0
76	0x00000000	0.0
77	0x00000000	0.0
78	0x00000000	0.0
79	0x00000000	0.0
80	0x00000000	0.0
81	0x00000000	0.0
82	0x00000000	0.0
83	0x00000000	0.0
84	0x00000000	0.0
85	0x3f800000	1.0
86	0x00000000	0.0
87	0x00000000	0.0
88	0x00000000	0.0
89	0x00000000	0.0
90	0x00000000	0.0
91	0x00000000	0.0
92	0x00000000	0.0
93	0x00000000	0.0
94	0x00000000	0.0
95	0x00000000	0.0
96	0x00000000	0.0
97	0x00000000	0.0
98	0x00000000	0.0
99	0x00000000	0.0
100	0x3f800000	1.0
101	0x3f800000	1.0
102	0x00000000	0.0
103	0x00000000	0.0
104	0x00000000	0.0
105	0x00000000	0.0
106	0x00000000	0.0
107	0x00000000	0.0
108	0x00000000	0.0
109	0x00000000	0.0
110	0x00000000	0.0
111	0x00000000	0.0
112	0x00000000	0.0
113	0x00000000	0.0
114	0x00000000	0.0
115	0x00000000	0.0
116	0x00000000	0.0
117	0x3f800000	1.0
118	0x3f800000	1.0
119	0x00000000	0.0
120	0x00000000	0.0
121	0x00000000	0.0
122	0x00000000	0.0
123	0x00000000	0.0
124	0x00000000	0.0
125	0x00000000	0.0
126	0x00000000	0.0
127	0x00000000	0.0
128	0x00000000	0.0
129	0x00000000	0.0
130	0x00000000	0.0
131	0x00000000	0.0
132	0x00000000	0.0
133	0x00000000	0.0
134	0x3f800000	1.0
135	0x3f800000	1.0
136	0x00000000	0.0
137	0x00000000	0.0
138	0x00000000	0.0
139	0x00000000	0.0
140	0x00000000	0.0
141	0x00000000	0.0
142	0x00000000	0.0
143	0x00000000	0.0
144	0x00000000	0.0
145	0x00000000	0.0
146	0x00000000	0.0
147	0x00000000	0.0
148	0x00000000	0.0
149	0x00000000	0.0
150	0x00000000	0.0
151	0x3f800000	1.0
152	0x3f800000	1.0
153	0x00000000	0.0
154	0x00000000	0.0
155	0x00000000	0.0
156	0x00000000	0.0
157	0x00000000	0.0
158	0x00000000	0.0
159	0x00000000	0.0
160	0x00000000	0.0
161	0x00000000	0.0
162	0x00000000	0.0
163	0x00000000	0.0
164	0x00000000	0.0
165	0x00000000	0.0
166	0x00000000	0.0
167	0x00000000	0.0
168	0x3f800000	1.0
169	0x3f800000	1.0
170	0x00000000	0.0
171	0x00000000	0.0
172	0x00000000	0.0
173	0x00000000	0.0
174	0x00000000	0.0
175	0x00000000	0.0
176	0x00000000	0.0
177	0x00000000	0.0
178	0x00000000	0.0
179	0x00000000	0.0
180	0x00000000	0.0
181	0x00000000	0.0
182	0x00000000	0.0
183	0x00000000	0.0
184	0x00000000	0.0
185	0x3f800000	1.0
186	0x3f800000	1.0
187	0x00000000	0.0
188	0x00000000	0.0
189	0x00000000	0.0
190	0x00000000	0.0
191	0x00000000	0.0
192	0x00000000	0.0
193	0x00000000	0.0
194	0x00000000	0.0
195	0x00000000	0.0
196	0x00000000	0.0
197	0x00000000	0.0
198	0x00000000	0.0
199	0x00000000	0.0
200	0x3f800000	1.0
201	0x3f800000	1.0
202	0x3f800000	1.0
203	0x00000000	0.0
204	0x00000000	0.0
205	0x00000000	0.0
206	0x00000000	0.0
207	0x00000000	0.0
208	0x00000000	0.0
209	0x00000000	0.0
210	0x00000000	0.0
211	0x00000000	0.0
212	0x00000000	0.0
213	0x00000000	0.0
214	0x00000000	0.0
215	0x00000000	0.0
216	0x00000000	0.0
217	0x3f800000	1.0
218	0x3f800000	1.0
219	0x3f800000	1.0
220	0x00000000	0.0
221	0x00000000	0.0
222	0x00000000	0.0
223	0x00000000	0.0
224	0x00000000	0.0
225	0x00000000	0.0
226	0x00000000	0.0
227	0x00000000	0.0
228	0x00000000	0.0
229	0x00000000	0.0
230	0x00000000	0.0
231	0x00000000	0.0
232	0x00000000	0.0
233	0x00000000	0.0
234	0x3f800000	1.0
235	0x3f800000	1.0
236	0x3f800000	1.0
237	0x00000000	0.0
238	0x00000000	0.0
239	0x00000000	0.0
240	0x00000000	0.0
241	0x00000000	0.0
242	0x00000000	0.0
243	0x00000000	0.0
244	0x00000000	0.0
245	0x00000000	0.0
246	0x00000000	0.0
247	0x00000000	0.0
248	0x00000000	0.0
249	0x00000000	0.0
250	0x00000000	0.0
251	0x3f800000	1.0
252	0x3f800000	1.0
253	0x3f800000	1.0
254	0x00000000	0.0
255	0x00000000	0.0

net.3.weight f4 [36, 100]
0	0xbd3026ff	-0.04300594
1	0xbd184de9	-0.037183676
2	0xbd314069	-0.043274317
3	0xbd68b30a	-0.05681137
4	0xbc684470	-0.014176473
5	0xbd6a4a92	-0.057200022
6	0x3d68b40e	0.05681234
7	0x3d0cf958	0.03441748
8	0xbd92f08b	-0.07174786
9	0xbbd16801	-0.006390572
10	0x3d4b6018	0.04965219
11	0x3db9fe9c	0.09081766
12	0xbd2cc97a	-0.04218433
13	0x3db92f25	0.09042195
14	0x3d80aeaf	0.06283318
15	0x3d7119da	0.058862545
16	0xbd9e0000	-0.07714844
17	0xbd84ecb0	-0.06490457
18	0x3d358d3d	0.04432415
19	0xbd0b8f96	-0.03407248
20	0x3d9760f5	0.0739154
21	0xbdaba6b1	-0.08381403
22	0xbd271bc7	-0.040797975
23	0x3d9c9c21	0.07646967
24	0x3cbaec7a	0.022817839
25	0xbcdcc64d	-0.026950026
26	0x3a0d9548	0.0005400968
27	0x3d624e97	0.05525073
28	0x3d8203fb	0.063484155
29	0xbd4be2aa	-0.04977671
30	0xbdb440ee	-0.08801447
31	0x3db4fcb8	0.08837265
32	0x3c889923	0.016674584
33	0xbb8b71e3	-0.0042555197
34	0x3d9c2099	0.07623405
35	0xbcc587a0	-0.024112523
36	0xbc8d88fb	-0.017277231
37	0x3cf243c4	0.029573329
38	0x3d72ac94	0.059246615
39	0xbd223bb4	-0.03960772
40	0xbda820c2	-0.08209373
41	0x3c240c78	0.010012738
42	0x3d29d4ea	0.041462816
43	0x3d6b02b3	0.05737562
44	0x3d765924	0.060143605
45	0x3c601250	0.013676241
46	0x3db8021b	0.089847766
47	0x36f45f93	7.282893e-06
48	0x3db5c3e9	0.088752575
49	0x3d18addb	0.037275176
50	0xbc20d03a	-0.00981527
51	0x393b416b	0.0001785808
52	0x3c8183ab	0.015809854
53	0x3c0dc4d0	0.008652881
54	0xbd65e2ca	-0.056124486
55	0x3da4d0fc	0.08047673
56	0x3d9962f7	0.07489579
57	0x3d458f5f	0.048232432
58	0x3d8700b1	0.06591929
59	0x3cdbdd06	0.02683879
60	0xbaf13d24	-0.0018405062
61	0xbda97f5a	-0.082762435
62	0xbd025744	-0.031821504
63	0xbd7f6db9	-0.0623605
64	0x3c4d7d3f	0.012542068
65	0x3caa4413	0.020784413
66	0xbd2d51af	-0.042314228
67	0x3c87e021	0.016586365
68	0x3d20b378	0.039233655
69	0x388925f6	6.53974e-05
70	0xbd90e82d	-0.07075534
71	0xbd8fc639	-0.0702023
72	0xbd75beb9	-0.05999634
73	0x3d85cbf1	0.06533039
74	0x3cd73eec	0.02627512
75	0x3d6718d9	0.05642018
76	0xbc854149	-0.016266482
77	0x3d951aea	0.07280524
78	0x3d75df89	0.060027633
79	0xbdb1d717	-0.08683603
80	0xbc86d8f9	-0.016460882
81	0xbd554780	-0.05207014
82	0x3db69a17	0.08916109
83	0xbd600d4c	-0.05470018
84	0xbd1f2273	-0.038851213
85	0xbd06dcd9	-0.03292546
86	0x3db4b2a3	0.08823135
87	0x3d95898d	0.07301626
88	0xbd6ff345	-0.05858161
89	0xbdb6d9fe	-0.089282975
90	0x3d8dd98d	0.0692626
91	0x3d89a68b	0.06721219
92	0x3c9ef3b5	0.019403318
93	0x3c699c12	0.0142584015
94	0xbc46786c	-0.012113672
95	0x3d920bb0	0.071311355
96	0x3a41b21b	0.00073889055
97	0xbcfb8079	-0.030700909
98	0xbccce0f8	-0.025009617
99	0x3cdb325d	0.026757414
100	0xbb187401	-0.0023262503
101	0xbd8995d8	-0.067180336
102	0xbcee75d7	-0.029108925
103	0x3d927fcf	0.07153284
104	0x3ce9d8c2	0.028545741
105	0x3d94089a	0.07228203
106	0x3d43d0a6	0.047806405
107	0xbb357ab9	-0.0027691557
108	0x3cb8a6a8	0.022540405
109	0xbdb1fb1a	-0.08690472
110	0xbdb0c326	-0.086309716
111	0x3c79f1b8	0.015255384
112	0x3cb3c6ca	0.021945376
113	0x3c5c6685	0.013452177
114	0x3cc7d9dd	0.024395877
115	0x3db14f51	0.086577065
116	0x3d7b6bff	0.06138229
117	0x3d64161d	0.05568515
118	0x3ba5ea79	0.0050633517
119	0xbd74b371	-0.05974144
120	0x3d4b9e0a	0.049711265
121	0xbd94c3a3	-0.07263877
122	0x3da9b86b	0.08287128
123	0xbcd17f02	-0.025573257
124	0x3b9f42cf	0.004860259
125	0x3db35936	0.0875725
126	0xbc98725b	-0.018609216
127	0xbd6f961a	-0.058492757
128	0xbd4858e6	-0.048912905
129	0xbd247274	-0.040148214
130	0x3d4665ef	0.048437055
131	0x3d59e34d	0.053195287
132	0xbd6d4bff	-0.057933804
133	0x3cc8a109	0.02449085
134	0xbda41392	-0.08011545
135	0xbd95a87c	-0.073075265
136	0x3dbb83e7	0.09156018
137	0xbd0f6cab	-0.035015743
138	0x3d819e39	0.06329007
139	0x3dbb1e08	0.091365874
140	0xbdb1177c	-0.086470574
141	0x3adb95ec	0.0016753054
142	0x3d3b4a25	0.045725007
143	0x3cc003fc	0.0234394
144	0xbc8ab533	-0.016932106
145	0x3c9d47ad	0.019199217
146	0x3af1cef6	0.001844852
147	0xbc6fb13a	-0.014629656
148	0x3cd3addb	0.025839737
149	0x3db254dd	0.08707593
150	0xbd6c4ec4	-0.057692304
151	0x3d9cb02d	0.0765079
152	0xbdb2565e	-0.087078795
153	0xbd1af4b9	-0.037831042
154	0xbd5c83c2	-0.05383659
155	0x3d237146	0.039902948
156	0x3db65f4d	0.08904896
157	0x3d3283bd	0.043582667
158	0xbc22c6c5	-0.009935086
159	0xbcfbc965	-0.03073568
160	0xbc31ed08	-0.010859735
161	0xbd90b7e8	-0.07066327
162	0xbb9e06e5	-0.0048225992
163	0xbd1c7d4f	-0.03820544
164	0x3d9e25bd	0.07722042
165	0x3d049e3e	0.032377474
166	0x3d31c6a4	0.04340233
167	0x3d8eb5df	0.06968283
168	0x3db158dd	0.086595275
169	0xbd325689	-0.043539558
170	0xbb55548b	-0.0032551612
171	0xbd1baddc	-0.038007602
172	0xbd3cdac8	-0.046107084
173	0xba78f9b6	-0.0009497659
174	0xbc08b069	-0.008342841
175	0xbc5c3684	-0.013440732
176	0xbcfa4823	-0.030551976
177	0xbd3946e9	-0.04523364
178	0x3d82b144	0.06381467
179	0xbd12d775	-0.035850007
180	0xbdb56318	-0.08856791
181	0xbca9f023	-0.020744389
182	0xbabd7786	-0.0014455176
183	0xbd854869	-0.06507952
184	0x3d2ab901	0.04168034
185	0xbd96b3fe	-0.073585495
186	0x3d8c562f	0.06852376
187	0x3d237eb0	0.03991574
188	0x3d3f5a8e	0.04671722
189	0xbd4f3ec4	-0.050596967
190	0x3d160a94	0.03663118
191	0xbd8a23b2	-0.067450896
192	0x3da9c23b	0.08289
193	0x3c383e25	0.011245285
194	0xbd112604	-0.035436645
195	0xba627b4e	-0.00086395897
196	0xbd911ef5	-0.07085983
197	0x3da156f2	0.078779116
198	0x3c15bd26	0.009139335
199	0x3d1003c6	0.03515985
200	0x3db99b95	0.09062878
201	0x3d170210	0.0368672
202	0xbd4d51f5	-0.05012699
203	0x3c339bf4	0.010962475
204	0x3d02ba90	0.0319162
205	0xbd10facf	-0.03539544
206	0xbd9480cd	-0.07251129
207	0xbd2703f8	-0.04077527
208	0x3c80236a	0.015641887
209	0x3bfd827f	0.0077365036
210	0xbdba5488	-0.09098154
211	0x3d4ea572	0.05045075
212	0xbcdadf5c	-0.026717834
213	0x3da9ed40	0.08297205
214	0x3d7e3404	0.062061325
215	0x3d6f2123	0.05838121
216	0x3d98d8dc	0.07463238
217	0xbd5f586e	-0.054527692
218	0xbcaef7ec	-0.021358453
219	0x3db1bd4e	0.08678685
220	0x3d89e74a	0.06733568
221	0x3c80e687	0.015734924
222	0x38de2697	0.00010592973
223	0x3d8c3ce5	0.06847552
224	0xbd9b5e4c	-0.07586345
225	0x3d2343aa	0.03985945
226	0xbdaccc02	-0.08437349
227	0x3d2561d7	0.04037651
228	0xbd911faa	-0.070861176
229	0x3d8224c6	0.0635467
230	0x39a62735	0.000316912
231	0x3d6954a9	0.056965504
232	0xbca39d62	-0.019972507
233	0x3ca70365	0.02038736
234	0xbc35784a	-0.011076042
235	0x3d2ec837	0.04267141
236	0xbb0222d5	-0.0019857187
237	0x3d232c12	0.03983695
238	0x3c2dc82f	0.0106068095
239	0x3cdcc6d3	0.026950276
240	0x3aa73869	0.00127579
241	0x3d88c24d	0.06677685
242	0x3d1e34e5	0.038624663
243	0x3d8f7ed9	0.07006616
244	0x3d587d75	0.05285402
245	0x3ca6205c	0.020279102
246	0x3d8b4b9c	0.06801531
247	0x3ca4bf44	0.020110734
248	0x3bdf25d1	0.006809928
249	0xbcefd75a	-0.029277492
250	0x3b250488	0.0025179703
251	0x3c5a07ca	0.013307521
252	0x3da5fab7	0.08104461
253	0x3d3bb031	0.045822326
254	0x3ccb9185	0.024849663
255	0xbb47621c	-0.0030423468

net.3.bias f4 [36]
0	0xbcde70be	-0.027153369
1	0x3d0e0f35	0.03468247
2	0xbd8ee28b	-0.069768034
3	0x3cfaac24	0.030599661
4	0xbd19511f	-0.03743088
5	0xbdaf632a	-0.08563836
6	0x3d41f9cd	0.04735737
7	0x3c537712	0.012906807
8	0x3bec8f74	0.0072192494
9	0xbdadb06f	-0.08480918
10	0x3d60c34c	0.05487375
11	0xbda8fd42	-0.0825143
12	0xbd6e8457	-0.058231678
13	0x3c3b3367	0.0114258295
14	0x3d86c5e2	0.06580712
15	0xbdc366c3	-0.095410846
16	0xbd85ffd1	-0.06542934
17	0x3d3c030f	0.045901354
18	0xbda8ea21	-0.082477815
19	0xbda33a7c	-0.079701394
20	0xbc8ba007	-0.01704408
21	0x3cb1603e	0.021652337
22	0xbd548c0b	-0.051891368
23	0x3c53be53	0.012923795
24	0x3db182cd	0.086675264
25	0xbd808c2c	-0.06276736
26	0x3b824db5	0.0039765486
27	0xbdb673dc	-0.08908817
28	0x3d77ad63	0.06046809
29	0xbd5d4a6b	-0.05402605
30	0xbba4e50d	-0.005032188
31	0x3d72201e	0.05911266
32	0xbd1c5894	-0.038170412
33	0xbd12752b	-0.03575627
34	0xbc921ab6	-0.017835002
35	0x3c6e47ec	0.014543515

net.3.mask f4 [36, 100]
0	0x00000000	0.0
1	0x00000000	0.0
2	0x00000000	0.0
3	0x00000000	0.0
4	0x00000000	0.0
5	0x00000000	0.0
6	0x00000000	0.0
7	0x00000000	0.0
8	0x00000000	0.0
9	0x00000000	0.0
10	0x00000000	0.0
11	0x00000000	0.0
12	0x00000000	0.0
13	0x00000000	0.0
14	0x00000000	0.0
15	0x00000000	0.0
16	0x00000000	0.0
17	0x00000000	0.0
18	0x00000000	0.0
19	0x00000000	0.0
20	0x00000000	0.0
21	0x00000000	0.0
22	0x00000000	0.0
23	0x00000000	0.0
24	0x00000000	0.0
25	0x00000000	0.0
26	0x00000000	0.0
27	0x00000000	0.0
28	0x00000000	0.0
29	0x00000000	0.0
30	0x00000000	0.0
31	0x00000000	0.0
32	0x00000000	0.0
33	0x00000000	0.0
34	0x00000000	0.0
35	0x00000000	0.0
36	0x00000000	0.0
37	0x00000000	0.0
38	0x00000000	0.0
39	0x00000000	0.0
40	0x00000000	0.0
41	0x00000000	0.0
42	0x00000000	0.0
43	0x00000000	0.0
44	0x00000000	0.0
45	0x00000000	0.0
46	0x00000000	0.0
47	0x00000000	0.0
48	0x00000000	0.0
49	0x00000000	0.0
50	0x00000000	0.0
51	0x00000000	0.0
52	0x00000000	0.0
53	0x00000000	0.0
54	0x00000000	0.0
55	0x00000000	0.0
56	0x00000000	0.0
57	0x00000000	0.0
58	0x00000000	0.0
59	0x00000000	0.0
60	0x00000000	0.0
61	0x00000000	0.0
62	0x00000000	0.0
63	0x00000000	0.0
64	0x00000000	0.0
65	0x00000000	0.0
66	0x00000000	0.0
67	0x00000000	0.0
68	0x00000000	0.0
69	0x00000000	0.0
70	0x00000000	0.0
71	0x00000000	0.0
72	0x00000000	0.0
73	0x00000000	0.0
74	0x00000000	0.0
75	0x00000000	0.0
76	0x00000000	0.0
77	0x00000000	0.0
78	0x00000000	0.0
79	0x00000000	0.0
80	0x00000000	0.0
81	0x00000000	0.0
82	0x00000000	0.0
83	0x00000000	0.0
84	0x00000000	0.0
85	0x00000000	0.0
86	0x00000000	0.0
87	0x00000000	0.0
88	0x00000000	0.0
89	0x00000000	0.0
90	0x00000000	0.0
91	0x00000000	0.0
92	0x00000000	0.0
93	0x00000000	0.0
94	0x00000000	0.0
95	0x00000000	0.0
96	0x00000000	0.0
97	0x00000000	0.0
98	0x00000000	0.0
99	0x00000000	0.0
100	0x3f800000	1.0
101	0x00000000	0.0
102	0x00000000	0.0
103	0x00000000	0.0
104	0x00000000	0.0
105	0x00000000	0.0
106	0x00000000	0.0
107	0x00000000	0.0
108	0x00000000	0.0
109	0x00000000	0.0
110	0x00000000	0.0
111	0x00000000	0.0
112	0x00000000	0.0
113	0x00000000	0.0
114	0x00000000	0.0
115	0x00000000	0.0
116	0x00000000	0.0
117	0x3f800000	1.0
118	0x00000000	0.0
119	0x00000000	0.0
120	0x00000000	0.0
121	0x00000000	0.0
122	0x00000000	0.0
123	0x00000000	0.0
124	0x00000000	0.0
125	0x00000000	0.0
126	0x00000000	0.0
127	0x00000000	0.0
128	0x00000000	0.0
129	0x00000000	0.0
130	0x00000000	0.0
131	0x00000000	0.0
132	0x00000000	0.0
133	0x00000000	0.0
134	0x3f800000	1.0
135	0x00000000	0.0
136	0x00000000	0.0
137	0x00000000	0.0
138	0x00000000	0.0
139	0x00000000	0.0
140	0x00000000	0.0
141	0x00000000	0.0
142	0x00000000	0.0
143	0x00000000	0.0
144	0x00000000	0.0
145	0x00000000	0.0
146	0x00000000	0.0
147	0x00000000	0.0
148	0x00000000	0.0
149	0x00000000	0.0
150	0x00000000	0.0
151	0x3f800000	1.0
152	0x00000000	0.0
153	0x00000000	0.0
154	0x00000000	0.0
155	0x00000000	0.0
156	0x00000000	0.0
157	0x00000000	0.0
158	0x00000000	0.0
159	0x00000000	0.0
160	0x00000000	0.0
161	0x00000000	0.0
162	0x00000000	0.0
163	0x00000000	0.0
164	0x00000000	0.0
165	0x00000000	0.0
166	0x00000000	0.0
167	0x00000000	0.0
168	0x3f800000	1.0
169	0x00000000	0.0
170	0x00000000	0.0
171	0x00000000	0.0
172	0x00000000	0.0
173	0x00000000	0.0
174	0x00000000	0.0
175	0x00000000	0.0
176	0x00000000	0.0
177	0x00000000	0.0
178	0x00000000	0.0
179	0x00000000	0.0
180	0x00000000	0.0
181	0x00000000	0.0
182	0x00000000	0.0
183	0x00000000	0.0
184	0x00000000	0.0
185	0x3f800000	1.0
186	0x00000000	0.0
187	0x00000000	0.0
188	0x00000000	0.0
189	0x00000000	0.0
190	0x00000000	0.0
191	0x00000000	0.0
192	0x00000000	0.0
193	0x00000000	0.0
194	0x00000000	0.0
195	0x00000000	0.0
196	0x00000000	0.0
197	0x00000000	0.0
198	0x00000000	0.0
199	0x00000000	0.0
200	0x3f800000	1.0
201	0x3f800000	1.0
202	0x00000000	0.0
203	0x00000000	0.0
204	0x00000000	0.0
205	0x00000000	0.0
206	0x00000000	0.0
207	0x00000000	0.0
208	0x00000000	0.0
209	0x00000000	0.0
210	0x00000000	0.0
211	0x00000000	0.0
212	0x00000000	0.0
213	0x00000000	0.0
214	0x00000000	0.0
215	0x00000000	0.0
216	0x00000000	0.0
217	0x3f800000	1.0
218	0x3f800000	1.0
219	0x00000000	0.0
220	0x00000000	0.0
221	0x00000000	0.0
222	0x00000000	0.0
223	0x00000000	0.0
224	0x00000000	0.0
225	0x00000000	0.0
226	0x00000000	0.0
227	0x00000000	0.0
228	0x00000000	0.0
229	0x00000000	0.0
230	0x00000000	0.0
231	0x00000000	0.0
232	0x00000000	0.0
233	0x00000000	0.0
234	0x3f800000	1.0
235	0x3f800000	1.0
236	0x00000000	0.0
237	0x00000000	0.0
238	0x00000000	0.0
239	0x00000000	0.0
240	0x00000000	0.0
241	0x00000000	0.0
242	0x00000000	0.0
243	0x00000000	0.0
244	0x00000000	0.0
245	0x00000000	0.0
246	0x00000000	0.0
247	0x00000000	0.0
248	0x00000000	0.0
249	0x00000000	0.0
250	0x00000000	0.0
251	0x3f800000	1.0
252	0x3f800000	1.0
253	0x00000000	0.0
254	0x00000000	0.0
255	0x00000000	0.0
